{"class_name": "Model", "config": {"name": "CNN_lv2", "layers": [{"class_name": "InputLayer", "config": {"batch_input_shape": [null, 28, 28, 1], "dtype": "float32", "sparse": false, "name": "input_7"}, "name": "input_7", "inbound_nodes": []}, {"class_name": "Conv2D", "config": {"name": "conv1", "trainable": true, "dtype": "float32", "filters": 6, "kernel_size": [5, 5], "strides": [1, 1], "padding": "valid", "data_format": "channels_last", "dilation_rate": [1, 1], "activation": "linear", "use_bias": true, "kernel_initializer": {"class_name": "GlorotUniform", "config": {"seed": 0}}, "bias_initializer": {"class_name": "Zeros", "config": {}}, "kernel_regularizer": null, "bias_regularizer": null, "activity_regularizer": null, "kernel_constraint": null, "bias_constraint": null}, "name": "conv1", "inbound_nodes": [[["input_7", 0, 0, {}]]]}, {"class_name": "BatchNormalization", "config": {"name": "bn_conv1", "trainable": true, "dtype": "float32", "axis": [3], "momentum": 0.99, "epsilon": 0.001, "center": true, "scale": true, "beta_initializer": {"class_name": "Zeros", "config": {}}, "gamma_initializer": {"class_name": "Ones", "config": {}}, "moving_mean_initializer": {"class_name": "Zeros", "config": {}}, "moving_variance_initializer": {"class_name": "Ones", "config": {}}, "beta_regularizer": null, "gamma_regularizer": null, "beta_constraint": null, "gamma_constraint": null}, "name": "bn_conv1", "inbound_nodes": [[["conv1", 0, 0, {}]]]}, {"class_name": "Activation", "config": {"name": "activation_6", "trainable": true, "dtype": "float32", "activation": "relu"}, "name": "activation_6", "inbound_nodes": [[["bn_conv1", 0, 0, {}]]]}, {"class_name": "MaxPooling2D", "config": {"name": "max_pooling2d_6", "trainable": true, "dtype": "float32", "pool_size": [3, 3], "padding": "valid", "strides": [1, 1], "data_format": "channels_last"}, "name": "max_pooling2d_6", "inbound_nodes": [[["activation_6", 0, 0, {}]]]}, {"class_name": "Conv2D", "config": {"name": "conv2", "trainable": true, "dtype": "float32", "filters": 32, "kernel_size": [5, 5], "strides": [1, 1], "padding": "valid", "data_format": "channels_last", "dilation_rate": [1, 1], "activation": "linear", "use_bias": true, "kernel_initializer": {"class_name": "GlorotUniform", "config": {"seed": 0}}, "bias_initializer": {"class_name": "Zeros", "config": {}}, "kernel_regularizer": null, "bias_regularizer": null, "activity_regularizer": null, "kernel_constraint": null, "bias_constraint": null}, "name": "conv2", "inbound_nodes": [[["max_pooling2d_6", 0, 0, {}]]]}, {"class_name": "BatchNormalization", "config": {"name": "bn_conv2", "trainable": true, "dtype": "float32", "axis": [3], "momentum": 0.99, "epsilon": 0.001, "center": true, "scale": true, "beta_initializer": {"class_name": "Zeros", "config": {}}, "gamma_initializer": {"class_name": "Ones", "config": {}}, "moving_mean_initializer": {"class_name": "Zeros", "config": {}}, "moving_variance_initializer": {"class_name": "Ones", "config": {}}, "beta_regularizer": null, "gamma_regularizer": null, "beta_constraint": null, "gamma_constraint": null}, "name": "bn_conv2", "inbound_nodes": [[["conv2", 0, 0, {}]]]}, {"class_name": "Activation", "config": {"name": "activation_7", "trainable": true, "dtype": "float32", "activation": "relu"}, "name": "activation_7", "inbound_nodes": [[["bn_conv2", 0, 0, {}]]]}, {"class_name": "MaxPooling2D", "config": {"name": "max_pooling2d_7", "trainable": true, "dtype": "float32", "pool_size": [3, 3], "padding": "valid", "strides": [1, 1], "data_format": "channels_last"}, "name": "max_pooling2d_7", "inbound_nodes": [[["activation_7", 0, 0, {}]]]}, {"class_name": "Flatten", "config": {"name": "flatten_3", "trainable": true, "dtype": "float32", "data_format": "channels_last"}, "name": "flatten_3", "inbound_nodes": [[["max_pooling2d_7", 0, 0, {}]]]}, {"class_name": "Dense", "config": {"name": "fc", "trainable": true, "dtype": "float32", "units": 10, "activation": "softmax", "use_bias": true, "kernel_initializer": {"class_name": "GlorotUniform", "config": {"seed": 0}}, "bias_initializer": {"class_name": "Zeros", "config": {}}, "kernel_regularizer": null, "bias_regularizer": null, "activity_regularizer": null, "kernel_constraint": null, "bias_constraint": null}, "name": "fc", "inbound_nodes": [[["flatten_3", 0, 0, {}]]]}], "input_layers": [["input_7", 0, 0]], "output_layers": [["fc", 0, 0]]}, "keras_version": "2.2.4-tf", "backend": "tensorflow"}